model.tflite (tflite, 408740 bytes, 4 tensors)

sequential/dense_1/BiasAdd/ReadVariableOp/resource f4 [10]
00000000: bd63 bfbc 9c0b ebbe 3bc1 083e 7029 a93e
00000010: 127e d8be fbcc a4bd 58f1 813e d662 5e3e
00000020: 35c6 3bbd 60fa ccbe
-0.023362989 -0.45907295 0.13354962 0.33039427 -0.42283684 -0.080469094 0.25379443 0.2171739
-0.04584332 -0.4003477

sequential/dense/BiasAdd/ReadVariableOp/resource f4 [128]
00000000: 759d 2d3f 6d6e 8bbe 3063 413f 1e5e 103f
00000010: b704 333f 9692 79be b6f4 59bc f8e8 db3e
00000020: 69d8 ca3e 9194 7fbc 2795 053e e549 e0bd
00000030: 284f 813e 4f57 743e d675 c9bc 39ac 8a3f
00000040: d965 483e 46af 44be e15a 8d3e 7dab c63e
00000050: 92f4 8d3f 6113 033f 84d5 42bd 41a5 243d
00000060: f396 8abe d8ae 143f 083f 96bd 1930 1d3f
00000070: b802 7e3f 3777 7e3e 3538 6a3e 8a7b 98bd
00000080: 9f67 4abf ea25 dcbe dad7 4b3f 0f13 74bc
00000090: d267 853e 60ab ba3c 24cc e9bd dcea 35bf
000000a0: 5d5a e73e c1a8 1b3f 97b1 6a3e ce99 b43e
000000b0: 137d 033f de66 e23e a035 243e 4f1c 50be
000000c0: 7ebd 7a3d 8de6 fc3e ab59 eabe 2b05 2e3f
000000d0: 685e 113f 5d7a 1b3f 66f6 103e 84b1 5ebc
000000e0: c91f a33d 3975 efbe 2e21 513e 533a 9b3f
000000f0: a8e2 553d 2bb9 69bc f243 ce3e 9ec1 1f3d
00000100: e2ff 013f d3bf e03d f957 373d 5f1a 163f
00000110: 605a f5bc 5921 8b3b 8e11 51bc 684b 933e
00000120: 0530 d03e a492 6e3e 3ad8 903e 3233 a9be
00000130: b4cb ed3e 9cc8 653e 0c8d 0a3f 3a46 dbbc
00000140: beb5 563f caf7 9d3d 28cf 7e3d 9760 623f
00000150: 39d1 99bc 01c1 723c f203 3fbc 1709 b93c
00000160: b7a0 90bc a594 903e c340 1a3f ac82 80bd
00000170: 5e5b bbbb 2872 92be 8269 a0bd b15a de3d
00000180: e0aa aa3e 1168 2e3f 66bb dc3e bb54 c83d
00000190: 0309 223f aa5b 263f ae9a a23e 70e7 233f
000001a0: 3dcb 683e 2257 033e 7957 9ebc 6cf5 2d3f
000001b0: b468 353d bea6 1b3f 218a 0a3f c1dc a73e
000001c0: dae5 b83b b679 243f 79ee db3e 7251 023f
000001d0: 9ece f53e 9c58 033f f411 2e3d c847 6b3e
000001e0: de8f 1abf 79c4 ef3d 237c 1f3f 8508 d13e
000001f0: 3a98 7c3f 5785 1dbf d01b cc3e 999c a53d
0.67818385 -0.27232686 0.75541973 0.5639361 0.6992907 -0.24372324 -0.013302973 0.4295118
0.39618233 -0.015599386 0.13045178 -0.10951594 0.25255704 0.2386143 -0.024592321 1.0833808
0.19570102 -0.19207487 0.27608398 0.3880271 1.1090262 0.51201445 -0.047566906 0.04019666
-0.2706829 0.5807929 -0.07336241 0.61401516 0.992229 0.24850164 0.22873004 -0.07445438
-0.79064363 -0.42997676 0.7962624 -0.014897122 0.2605577 0.022786796 -0.1141589 -0.7106149
0.4518613 0.60804373 0.22919308 0.35273594 0.51362723 0.44219106 0.16036081 -0.20323299
0.06121587 0.49394646 -0.45771536 0.67976636 0.5678468 0.60733587 0.14156494 -0.013592128
0.07965047 -0.4676912 0.20422813 1.2127174 0.05221811 -0.014265339 0.40286213 0.039003007
0.5078107 0.109740876 0.04476163 0.5863399 -0.02995032 0.0042459187 -0.012760533 0.28768468
0.40661636 0.23298126 0.28289968 -0.3304687 0.46444476 0.22439808 0.5412147 -0.026766885
0.83871067 0.07713278 0.06220928 0.88428634 -0.018776523 0.0148165235 -0.0116586555 0.022587342
-0.01765476 0.28238407 0.6025507 -0.06274924 -0.005717679 -0.2860272 -0.07832624 0.10857142
0.33333492 0.6812754 0.43111724 0.09781786 0.63295 0.6498362 0.31758636 0.6402502
0.22733779 0.12826207 -0.01932882 0.6795261 0.044289306 0.60801303 0.5411702 0.3278561
0.005642635 0.64248216 0.42955378 0.50905526 0.480092 0.5130708 0.04249759 0.22976601
-0.60375774 0.11707396 0.6229879 0.40826812 0.9866978 -0.61531585 0.3986497 0.08086509

sequential/dense/MatMul f4 [128, 784]
00000000: 46cf b73d 5ff1 8abe b86e 26bd e5c3 ab3c
00000010: dd1f eabc 3fee 503e bf58 a3bd 84d4 c93d
00000020: e532 eb3d 0929 62be 5871 bd3a 6b9f 8a3e
00000030: 82f2 413e 4beb a4be 0f4e b6be 87bd 1d3e
00000040: 039e 483f cac6 c63e c8a3 073e e364 a7bd
00000050: 68ab e73e 78a7 973d 0594 2c3f 465c f33b
00000060: 0bd4 323e 36fa 8b3e e260 83bb bb3f 3c3e
00000070: fea3 9c3e d148 ac3e 2dce 0bbe 038e 253c
00000080: 33a1 0ebe 48da f53d a9d5 fdbe dffb e9bc
00000090: 597c a73d f4c1 8b3e b5dd 71bc 2767 80be
000000a0: 793f c73d 2bc6 403e bffd 8a3e 8901 00be
000000b0: 15e8 1c3e 0db6 e23c b512 493e dd75 073e
000000c0: d6e1 4d3e de18 7abe a327 93be 3f4d df3b
000000d0: d284 803e 4a93 893e 520a 033e d66f ab3e
000000e0: a5d9 af3e a788 b9bd 55e4 0ebe 444a 983e
000000f0: a2c7 8dbc 499a 01be 2a68 b23d 100c 35be
00000100: a13f 4d3d 773d cebd c39f 50be 3c21 86be
00000110: 7a01 3ebe 9b0b 153d 580d c43d 5ea4 a0bb
00000120: 3b7f ccbd 62d7 30be b6cf c93d 9652 d33d
00000130: c180 aabd 8c98 4bbe c918 53be 81ef 37be
00000140: e2af e93e c6fa 163f 238a 823e 744a 9a3e
00000150: 07f7 dabd e9b6 18be e5da 593e aa28 053e
00000160: 5a3b a33e e2d2 46ba 1b12 b03d f608 f63c
00000170: 9369 dc3d db00 9e3d dace 2fbe c95e 78be
00000180: 754b b8bd 6611 23bd bafe 043e 3349 1f3d
00000190: 3feb 9ebc 926a 38be 9456 b73e cbe6 be3c
000001a0: 55d4 36be 39be 94bc ae55 09be cf26 b2be
000001b0: 7ad3 9b3e 823d 163f 7ef4 643e 90cb f23d
000001c0: 289f 203e 2637 46bc 6136 ae3e f148 143f
000001d0: 8256 ee3e 1d87 8fbd f642 4c3e b905 f4bd
000001e0: 0509 d8bc 89ed 663c fe20 103b 9b98 a0be
000001f0: c605 a0be afbf cebd 30bd eabd be2b 81be
00000200: 7c83 72be 029d b2bd 4548 933e cf2f 473e
00000210: 7432 80be 7d60 da3d dc37 b1be 78fb 61be
00000220: d6db 3b3e a2b3 f93e b802 93be f962 4a3e
00000230: 659a a23e 0ce6 62bd 61a0 14be a0e7 813e
00000240: 8701 973e b263 863e 8f6a 3d3e c3d8 0b3c
00000250: 5097 2c3e 1d3a 4b3d fc89 9bbd 26e0 59be
00000260: 9e33 2dbe 53b7 8c3c 0e47 b43b 1e96 27be
00000270: bc88 61be 5966 da3d 451a 043e d400 733d
00000280: 8341 02be c725 03be 2ca4 44be 6704 75be
00000290: d262 e3be 82c3 843e c1e1 62be dbf4 6b3e
000002a0: 5f4c 0dbe 8265 d3ba e16c 87bc fbd3 763d
000002b0: aa66 c5bc 5b82 613e c6cf 0c3e b496 ff3d
000002c0: e06d a83e 90a5 bb3d 5aff fd3d d5c3 f43d
000002d0: d29f 663e a769 c73e f969 a63c a40f 393e
000002e0: 885d a63e 4498 033e 9105 293e e234 903e
000002f0: 0b45 b03d 62e1 79be cc9e 3f3c e7b0 92bc
00000300: f202 e6bd 8ebb b33e cd79 b3bd 028e 27be
00000310: 5666 68be e0bb c0be 8cd0 c6bc eab3 f43b
00000320: 99c7 46bd 23cc cf3d 5c33 073e 06d6 5cbd
00000330: 2e54 7a3e 00b3 a23d 4d6a 523e 074f 263e
00000340: 985b bf3e 67ff 923e 270c 413d c37f b23e
00000350: e1ed e23e 3625 ea3d c7a7 c03c 9c42 473e
00000360: 1ebb 713d a4ec 7fbe ad4b b13d 4288 72bc
00000370: e9ab 783e 23b2 e83e ce88 e7be f1da b4be
00000380: e3ab 933b 4ba0 f7be df21 103e 327a 5d3d
00000390: 5143 593d edd8 abbd 5658 38be c850 d13d
000003a0: 2221 763e 8dd0 093e 9025 18bc ad48 01bd
000003b0: d409 a03d 6d10 2e3e 558e 7c3d 5150 a9bc
000003c0: 6bee f13c 8c75 853d 2b19 dfbc 1638 e6bb
000003d0: f26f 3ebe f8a7 0dbf b24f 3ebe e8c7 4bbe
000003e0: 1aa5 363e db08 ca3e 87bc a7be dcab b8be
000003f0: a6f2 66be 4b80 29bf b9b5 fbbc 856e 36be
0.08975081 -0.27137277 -0.040632933 0.020967433 -0.028579647 0.20403384 -0.07975911 0.09854987
0.11484317 -0.22085966 0.0014453335 0.2707475 0.18940166 -0.32210764 -0.3560643 0.1540433
0.78366107 0.3882354 0.13246071 -0.081735395 0.4524796 0.07404989 0.6741336 0.0074267713
0.174637 0.27339333 -0.004009352 0.18383686 0.30593866 0.33649305 -0.13652869 0.010104659
-0.1392868 0.120045245 -0.49577072 -0.028562484 0.08178014 0.27296412 -0.014762332 -0.250787
0.09728903 0.18825595 0.27146718 -0.12500586 0.15322907 0.0276747 0.19636042 0.13228555
0.20105681 -0.24423549 -0.28741178 0.0068146284 0.25101334 0.26870185 0.12796906 0.33483762
0.34345737 -0.090592675 -0.1395429 0.2974416 -0.017307106 -0.12656511 0.08711274 -0.17680383
0.05010951 -0.10070317 -0.20373444 -0.2619723 -0.18555251 0.03638802 0.095728576 -0.0049024066
-0.09985205 -0.17269662 0.09854071 0.103184864 -0.08325339 -0.19882411 -0.20614924 -0.17962457
0.45642 0.589764 0.25496015 0.30134928 -0.10691648 -0.14913525 0.21274908 0.13003793
0.3188122 -0.00075845246 0.08597203 0.03003357 0.10762324 0.07715007 -0.17168751 -0.24254908
-0.08998767 -0.039811514 0.12987795 0.038888168 -0.019399283 -0.18009403 0.3580824 0.02330341
-0.17854436 -0.018157111 -0.1341159 -0.34795234 0.3043478 0.58687603 0.22358891 0.11855233
0.15685713 -0.012098109 0.34025863 0.579238 0.46550375 -0.07008193 0.19947419 -0.11915154
-0.026371488 0.014094719 0.002199232 -0.3136643 -0.31254405 -0.100951545 -0.11461866 -0.25228685
-0.2368297 -0.08721353 0.28766075 0.19451831 -0.25038493 0.10662935 -0.3461293 -0.22068584
0.1834558 0.4876986 -0.28713012 0.19764318 0.3175842 -0.05539517 -0.14514305 0.25372028
0.29493353 0.26247936 0.1849768 0.008535567 0.16854596 0.049615968 -0.07594678 -0.21276912
-0.16914222 0.01717726 0.0055016344 -0.16365859 -0.22024816 0.106640525 0.12900646 0.05932696
-0.12720303 -0.1280738 -0.19203252 -0.2392746 -0.4441133 0.2593041 -0.22156431 0.23042624
-0.13798665 -0.0016128274 -0.01653141 0.060260754 -0.024096806 0.22022383 0.13751134 0.12479916
0.32896328 0.09162438 0.1240222 0.119514145 0.22521904 0.38947794 0.020314204 0.18072373
0.32493234 0.12851053 0.1650603 0.28165346 0.08606919 -0.24402383 0.011695575 -0.01790662
-0.112310305 0.3510403 -0.08763466 -0.16362765 -0.22695288 -0.37643337 -0.024269365 0.0074677365
-0.048530195 0.10146358 0.13203186 -0.053915046 0.24446175 0.07944298 0.20548363 0.16241084
0.37374568 0.28710482 0.04713073 0.348631 0.44322112 0.11432879 0.023517502 0.19459003
0.05901634 -0.24992615 0.08657012 -0.014802994 0.24284329 0.45448408 -0.4522156 -0.3532329
0.0045065745 -0.4836448 0.14075421 0.054071613 0.053042714 -0.08390985 -0.18002447 0.10220486
0.24036077 0.13458462 -0.009286299 -0.03156345 0.078143746 0.16998453 0.061659176 -0.02066818
0.029532632 0.06516561 -0.02723368 -0.007025729 -0.18597391 -0.55334425 -0.18585089 -0.19900477
0.17836419 0.3945988 -0.32761022 -0.36068618 -0.225535 -0.66211385 -0.0307263 -0.17815597

sequential/dense_1/MatMul f4 [10, 128]
00000000: 7e72 6e3e 74da 373d 05fe 543e 1c87 9ebd
00000010: 6fe1 05bf f621 023e a333 f8bd d7a1 743e
00000020: 8760 42bf 653c ecbc 0aaa f03d 4929 4a3e
00000030: 5761 d83c 640a e5ba 821c e83d 0857 f03d
00000040: 20c9 1f3c 1509 153d 41d9 c1bd 3b8d 2c3e
00000050: 8d91 893e b4a7 3ebf a255 97be c332 a7bd
00000060: 70c5 00bf fcac 00bf 9507 6a3d 6cea 07bf
00000070: 9c4b 343e 3867 75be be8a 8cbd ef7e 173e
00000080: db53 76bd a5a4 483e 3797 a6be 45e3 e3bd
00000090: fbca 08be 9f8b 2f3e 1a72 20bc 2d89 b5bd
000000a0: 7aee f0be a759 293e 2f71 0ebf 1c9f 803e
000000b0: 74ab 5dbe 83d5 53be d818 0bbd 6256 56be
000000c0: 8868 d2be 3394 eabe a8ab d73d eb66 30bd
000000d0: 9fd9 ee3e 91f2 81be f998 3a3e a23d 58bd
000000e0: 0614 debe 3645 85be dfc9 b03e 983b 65bf
000000f0: 5c78 0abf e45c 27bc f042 61bf 4d4f 95be
00000100: a997 c4be 4380 f63d 4241 37bd 3930 3d3f
00000110: ff43 8cbd 0bf9 063e 5ed1 c439 63d5 41be
00000120: 9878 8cbb 2b9d 933e fd41 a6be 354f 7abd
00000130: ba9a db3d 5f1f 2ebf 790b 403e b335 55bb
00000140: 4d3b b6be c815 1a3e f729 4dbe ad49 873e
00000150: c703 133e 1f79 02bf 4e09 5abe a393 43bd
00000160: e689 19bd 84bd b1bd 8c96 0e3e 3538 f5bc
00000170: f24d af3e 3cdb ad3c 4489 f43b 0b3f 30be
00000180: 24b3 663e 15ae 8bbe 9b3d 4f3e d792 f23d
00000190: 342a c1bf 02ba 08bf 01b1 243e 4d8c 843d
000001a0: e455 643f d77f dbbe 87b7 f4bd 2582 823e
000001b0: f1d5 a3bd f78e acbe e2dd 093e 02e8 9e3e
000001c0: 194d cf3d 51aa babe 8555 7cbe 2fb0 d03d
000001d0: a542 38bd 7d0a 093f 73f7 c63d 7f1c 00be
000001e0: a1bd c33c 8896 95bd c3d4 9d3e 6de8 e2bd
000001f0: 7bcc 9c3d 38a8 5ebd a3f5 953e db63 dbbe
00000200: 8cff 7f3e 9707 b73a fcb0 4abf 4e8c aabe
00000210: 94e3 b7bd ad21 293e d79c afbd 3171 8dbe
00000220: 4efb eebe b2ca 003e 64b9 e43c e7ff 59be
00000230: 6bfb 3b3e 830a 54be 6958 7b3d fbd8 56bf
00000240: b08d 02bf 5f06 9ebe 4b7d 61bf eb13 3fbe
00000250: 56ab 81bb cb87 32bf 60f0 5c3f 0695 323f
00000260: 1b82 50bf 6834 b9be ce8b 47bd 6541 45bf
00000270: a1d3 2bbf 3663 d9bd bc96 89be 7ebd b9be
00000280: ee1f 0f3e 79ab 23bf dfb3 0dbf 5bf0 b13d
00000290: 59ed b2be abb0 e4bd 4469 873e 1649 a23e
000002a0: 61f2 f23e bc66 b2bf 16da 19c0 0079 2f3f
000002b0: 1fa2 12bf 92ae 433e 28b9 a63e bf4c bf3e
000002c0: 8180 69bf 2efc 6a3e 01e6 c7be a0cb bd3b
000002d0: d783 0fbf 8951 43bf e495 38bd 78d8 2f3e
000002e0: e189 fabe 9f4f 813f 6e05 663e b68a 0fbf
000002f0: 45f6 593f aff1 4fbe 65e2 c8bf 868e dc3d
00000300: c854 e8be 0809 1a3e e045 6d3e e2c4 00bf
00000310: 1f33 223f 2633 06be c047 cbbd a8a4 9fbe
00000320: 5872 1c3e bd67 73bd 1e1a 883d 24ef 52be
00000330: 64c9 233e 22cf d13e 6704 153d 1092 113e
00000340: d935 d73e 2ef9 1abf 0e31 b7be e90a 053e
00000350: f3c8 5a3d 98d9 2d3f 8d4d 333e 7eda ac3e
00000360: fed5 b33e e8af d6be 3a47 31be 3f63 563e
00000370: 3677 02bb 3141 963e ffc1 9d3d febb babd
00000380: ea6a 33bf 656c 60be 6d22 c6be a996 bcbe
00000390: 802b 9bbe 574f f03e 218e 14be 11e4 c6bd
000003a0: 1abd 02be b20c 8f3d 94f7 54be 1c10 39bf
000003b0: 1055 c7be 5383 dbbe 3bf9 99bf f057 8cbf
000003c0: 0956 37be aa06 113f a2e4 7fbf 114c 65be
000003d0: 3a73 98be 23ac dbbf 0ac8 a8be e874 1bbf
000003e0: f049 0abe 6a77 5f3e ca49 eb3e 12c5 e8be
000003f0: 4b28 8c3e 4216 fbbd ed07 c4be c59d d6be
0.23285863 0.044886068 0.20800026 -0.07740614 -0.5229711 0.12708268 -0.12119224 0.23889862
-0.7592854 -0.028837392 0.117511824 0.19742312 0.026413603 -0.001747441 0.113335624 0.1173535
0.009752542 0.036385614 -0.09465266 0.1685075 0.2686886 -0.74474645 -0.2955752 -0.08163979
-0.50301266 -0.50263953 0.057136137 -0.53092074 0.17606968 -0.23965156 -0.068624005 0.14794515
-0.060138565 0.19594057 -0.32537243 -0.111273326 -0.13358681 0.17143105 -0.009792829 -0.08864055
-0.47056943 0.16538106 -0.55641454 0.2512139 -0.21647435 -0.20686917 -0.03395924 -0.2093139
-0.41095376 -0.45816192 0.10530788 -0.0430669 0.46650407 -0.25380376 0.18222417 -0.052793153
-0.43374652 -0.26029366 0.34529015 -0.8954406 -0.54089904 -0.010215018 -0.87992764 -0.29162064
-0.38396958 0.12036183 -0.04473997 0.73901707 -0.06848907 0.1318094 0.00037540024 -0.18929057
-0.004286837 0.28830847 -0.3247222 -0.061110694 0.10722871 -0.6801662 0.18754376 -0.0032533228
-0.35592118 0.15047371 -0.2003554 0.26423398 0.1435691 -0.50966066 -0.21292612 -0.04774822
-0.037485026 -0.08678725 0.13924617 -0.029934028 0.34239155 0.021222703 0.0074626524 -0.17211549
0.22529274 -0.27281252 0.20238344 0.11844414 -1.5091004 -0.53408825 0.16083147 0.06472073
0.8919356 -0.42870972 -0.119490676 0.25489917 -0.079997905 -0.33702824 0.13463548 0.31036383
0.10122127 -0.36458066 -0.24641998 0.10189854 -0.044985432 0.5353163 0.09715166 -0.1251087
0.023894133 -0.07304102 0.30826387 -0.11079488 0.07656189 -0.054359645 0.29288968 -0.4284962
0.24999827 0.0013964054 -0.79176307 -0.3331017 -0.08978954 0.16516753 -0.08574837 -0.2762542
-0.46676105 0.12577322 0.027920432 -0.21289025 0.18357627 -0.20707135 0.06136361 -0.83924836
-0.5099745 -0.30864236 -0.88081807 -0.18659942 -0.0039571924 -0.69738454 0.86304283 0.6975864
-0.81448525 -0.36172795 -0.048717313 -0.7705291 -0.67119795 -0.10614626 -0.26872814 -0.36277384
0.13977024 -0.6393352 -0.55352587 0.08688422 -0.34946707 -0.11166509 0.264475 0.31696385
0.47450545 -1.3937602 -2.403936 0.68544006 -0.5727863 0.19109562 0.32563138 0.3736324
-0.91211706 0.22947761 -0.39042667 0.0057920963 -0.56060547 -0.7629629 -0.04506482 0.1717242
-0.48933318 1.0102423 0.22463009 -0.5607103 0.851414 -0.20307039 -1.569409 0.10769372
-0.45377183 0.15042508 0.23171186 -0.5030042 0.63359255 -0.13105449 -0.099257946 -0.3118031
0.15277994 -0.059425104 0.066456065 -0.20599037 0.15994793 0.40978342 0.03638115 0.14215875
0.4203327 -0.6053647 -0.35779613 0.12992443 0.053414296 0.67910147 0.17510052 0.33760446
0.351242 -0.4193108 -0.17312327 0.20936297 -0.001990748 0.29346612 0.077030174 -0.09117888
-0.7008501 -0.21916349 -0.3869814 -0.36833695 -0.30306625 0.46935531 -0.14507343 -0.09711469
-0.12767449 0.06984843 -0.20797569 -0.72290206 -0.38932085 -0.4287363 -1.2029184 -1.0964336
-0.17903914 0.56650794 -0.9995824 -0.22392298 -0.2977541 -1.7161907 -0.32965118 -0.6072526
-0.13504767 0.21822897 0.45954734 -0.45462853 0.2737449 -0.12260105 -0.38287297 -0.41917244
